097_Neural_Rendering_using_Neural_Radiance_Fields_An_Intuition/fwd_code/models/depth_es/pretrained_depth_model.ckpt (torch_old, 926893 bytes, 175 tensors)

feature.conv0.conv.weight f4 [8, 3, 3, 3]
00000000: 8b4b 0d3d 703a a3be 0466 88bd 44d3 8b3c
00000010: 01a0 edbe 288c a63d 7cfe 903c f3e8 9d3d
00000020: 588b 65bd 9c35 68be 4fee a6be 6fda 31be
00000030: 41c8 33be 7b0b 08bf 46a4 3dbe 49fa a5bd
00000040: 7bff 7dbd 7609 28bd 3cb6 013f 7e83 873e
00000050: f13d f73d 5a7e a93d 714c 4a3c e10f 663d
00000060: 4db1 463e 995b 833e c693 a93e 1b98 563e
00000070: 7da3 f3bd 4985 f23d 5e53 b13d ee23 373e
00000080: 2789 783d cbdf 19be b377 40be f671 3ebe
00000090: d821 0b3f dd20 633e 736e 383e b905 3d3d
000000a0: 6fae 213e e32f aebe 67d1 f33c 43c2 82be
000000b0: e19f 0ebf 8e06 ca3e 5c93 ab3d 7839 2f3e
000000c0: 88b9 e23d 5f6f 22bc 7be0 c2be 633b 43bd
000000d0: cd18 ee3c 00c3 aebe 4abd a13e e4fa 713e
000000e0: 274f c23d 0276 06be bd0d 923d 8760 363d
000000f0: 5062 9fbe 289e a9bd 5f22 4abd 8fc2 003f
00000100: f93a 3b3e fb72 893e 9dc7 eebd 2ee3 fabd
00000110: cfd1 61be 201d 33bf 8a99 e0be 5644 dcbe
00000120: 65de 823e 44a8 1b3e 3350 213e a35f ca3d
00000130: 0399 dd3d 653e b23d f152 babe 4063 97bd
00000140: 1024 a5be 3a87 50bb 3062 9f3c eafd 0fbe
00000150: 7bde 573e ca0d 20be a8a3 b0be 260b 933e
00000160: 0612 fc3c cffa 143d a537 8a3e 7239 45be
00000170: 6d11 6ebe baac 963e a7d2 84be 4f5e febe
00000180: 03b4 f73e ecdd 753e 2318 75bd 9d66 023d
00000190: 6141 283e fb62 1cbe 3852 553e 810f ecbd
000001a0: 207d fdbe 89af 823d 6229 7a3e 55f5 bbbb
000001b0: a8d4 303e 31a6 083d 09fd df3b 34ea 24bd
000001c0: 4a1d 323d feec a9be 7fa3 aebc f545 f23d
000001d0: 518c 5cbd 8f07 273e 5b13 78be 1be8 8bbe
000001e0: 492a aebe 3a05 993d bb6f a03e c53f 00be
000001f0: 658d ee3e 1543 dcbc ba51 0fbe 9cf8 b6be
00000200: 3d6f aebe 532f 13be 0fd8 2fbe adb1 cd3d
00000210: 9a11 873e 831e 623f d5ad c93e 1b7e 243e
00000220: 927d 9e3d 1dc7 aa3d 33af 0fbe 5db3 49be
00000230: bca1 e0bc 7e3f 43bd 5d93 31be 7c8b 2b3d
00000240: a6ba b43d 6c86 1abe 11e0 703e 5fd5 9e3c
00000250: ef39 ed3c 1ef6 b63e 05aa ac3d 78ab a03e
00000260: 5f4d 893e 3da1 0bbf 27b6 85bf 6e33 98be
00000270: 2187 82bf 0640 78bf 1c54 203e 54ac 23be
00000280: 0fed 4abe 9277 bb3e 011c aebd 35ef 7cbd
00000290: 8603 cebd 5f56 0f3d c3ea f2bd a209 22bd
000002a0: 3398 bdbd 3449 b0bd 269b b13b d6c3 3a3e
000002b0: 3065 e63d 2a01 493e c522 423e 1499 903d
000002c0: 7969 913e f338 a8be 18ee fcbe 0351 a83e
000002d0: 0256 293e c3a8 463e 3a3b bdba 725d 193e
000002e0: 2d4e 0abe c2f7 cc3e baf6 ffbe 99ab 08bf
000002f0: 7c4c ab3e 23c8 abbe 0021 94bd ae41 a7bc
00000300: ead2 22be 5340 a83c dccc 8f3e 03b6 7fbd
00000310: 89a7 613e c438 a83e bce5 2abf c3e2 37bf
00000320: 31f7 08be 1aae 05bf 6942 a93c d9bd e63c
00000330: c7ab 0e3e 1bb8 5e3e 3c6f aa3e 416a 36be
00000340: 8393 24be f8dc 28bc d5f8 74bd aca6 17bc
00000350: 8369 41be 4bc9 263e e22c 823e 09fa 8a3e
0.03449587 -0.31880522 -0.06660083 0.017068513 -0.46411136 0.081322014 0.017699473 0.07710447
-0.05604109 -0.226767 -0.3260369 -0.17368482 -0.1755686 -0.5314252 -0.18519697 -0.08104379
-0.062011223 -0.041024648 0.5066869 0.26467508 0.12072361 0.08276053 0.012347327 0.056167487
0.19403572 0.2565582 0.33120555 0.20956461 -0.11896417 0.118418284 0.08658479 0.178848
0.060677674 -0.15026776 -0.18795662 -0.1859816 0.54348516 0.22180505 0.18010883 0.046148036
0.15789197 -0.3402091 0.029762937 -0.25538835 -0.55712706 0.39458126 0.08377716 0.17111766
0.110705435 -0.009914248 -0.3806189 -0.047664057 0.02906456 -0.34133148 0.3158973 0.23630863
0.09487753 -0.13130954 0.071315266 0.04452565 -0.31129694 -0.08282119 -0.049349185 0.5029687
0.18284215 0.26845536 -0.11659167 -0.12250362 -0.22052692 -0.69966316 -0.4386714 -0.43020886
0.255603 0.15200907 0.1575325 0.098815225 0.108202 0.08703307 -0.36391404 -0.07391977
-0.32254076 -0.0031818883 0.019456 -0.14061704 0.21080963 -0.1563026 -0.3449986 0.28719443
0.030770313 0.036372002 0.26995578 -0.19260195 -0.23248835 0.29428655 -0.25941965 -0.49681327
0.48379526 0.24010438 -0.05983747 0.03183614 0.1643119 -0.15272133 0.20832145 -0.11526395
-0.49509525 0.06381137 0.24429849 -0.005736033 0.17268622 0.033361617 0.006835584 -0.040262416
0.043484963 -0.33188623 -0.021318195 0.118297495 -0.053844754 0.16311477 -0.24226134 -0.2732552
-0.34016636 0.074717 0.31335244 -0.12524326 0.4659225 -0.026887456 -0.1399602 -0.3573655
-0.34069243 -0.14373522 -0.17172264 0.100436546 0.26380616 0.8832781 0.39390436 0.1606373
0.077387944 0.08338759 -0.14031677 -0.19697328 -0.027420871 -0.047667973 -0.17341371 0.04188107
0.08824663 -0.1509034 0.23522975 0.019388853 0.028958289 0.35734648 0.08430866 0.3138082
0.26816842 -0.54542905 -1.0446213 -0.29726738 -1.0197488 -0.9697269 0.15657085 -0.15983707
-0.19816993 0.36614662 -0.08501435 -0.061751563 -0.10059266 0.03499448 -0.118611835 -0.039559968
-0.09257545 -0.086077124 0.0054201065 0.18238768 0.11249769 0.1962935 0.18958576 0.07060447
0.28400782 -0.3285595 -0.494004 0.32874307 0.16536716 0.19400315 -0.0014437207 0.14977053
-0.13506384 0.40032774 -0.49992925 -0.5338684 0.3345679 -0.3355113 -0.07232857 -0.02041706
-0.1590077 0.020538485 0.28085983 -0.06242944 0.22036566 0.3285581 -0.66756797 -0.71830386
-0.13375546 -0.5221878 0.02066155 0.028166698 0.13932715 0.21749918 0.3328799 -0.1781397
-0.16071896 -0.010306589 -0.059807617 -0.009256046 -0.18887906 0.16287725 0.25424868 0.27143887

feature.conv0.bn.weight f4 [8]
00000000: 208c 293f eafe 8c3f 1eac 6f3f d5c3 853f
00000010: 268d 5d3f 81b9 183f c8ac b23f bad4 753f
0.6622944 1.1015294 0.93622005 1.0450388 0.865435 0.59658056 1.3958979 0.9602772

feature.conv0.bn.bias f4 [8]
00000000: 2f85 7bbe 1c63 313f 1de2 933d 0dd5 853f
00000010: 1d9d f23d 36d6 07be 43cf ff3e 1660 e43d
-0.24562524 0.69291854 0.07220862 1.0455643 0.11846373 -0.13265309 0.49962816 0.111511394

feature.conv0.bn.running_mean f4 [8]
00000000: 32f6 8bbe 147a 3d3c 2d52 47be 1921 98bc
00000010: 0f0f b13d 6c84 10bf 1e1f 9cbc f609 81be
-0.2733627 0.01156475 -0.19464941 -0.01857047 0.0864545 -0.5645206 -0.019057807 -0.25202912

feature.conv0.bn.running_var f4 [8]
00000000: 61b5 453d 7cbe 723c 5306 663d cf3e 503c
00000010: 055d 8f3c e9e3 c03e 039f 133c 2b26 a23d
0.04826868 0.014815923 0.056158375 0.012710287 0.01750041 0.37673882 0.009010079 0.07917436

feature.conv1.conv.weight f4 [8, 8, 3, 3]
00000000: 7fd7 1c3e d731 febc eb6d 4fbe 7105 a53e
00000010: 8aa6 203e e3f4 b63d 217f 4a3e 063c 6b3e
00000020: cf17 473d fd90 c73c d62f 023e 6712 3ebe
00000030: a745 403d b59a e53c bed7 33bf 8ed6 c6be
00000040: 62b9 0ebf 9192 65bf c378 813d 2e4f 873e
00000050: d91e 81bd 0b8a 743e f80c 9f3e d794 b4bc
00000060: 1b78 863e 3a80 873e 6733 5d3e 93f0 babe
00000070: b8f7 f3be e762 15be a970 72bc b8b4 b2be
00000080: cf5f 1abf b676 053f 38d4 6a3e 4758 0cbf
00000090: 9baa 84be 60da 36be 6ca1 b33c 84a8 abbe
000000a0: f304 18be 909e 3f3e 31da debd 3186 b4bc
000000b0: 1e20 833e a869 6bbe 9a06 91be 7259 debd
000000c0: 59ed 81be 3527 5ebe 1a6d a4bd 1141 88be
000000d0: 29b2 673d d40f 23be 2619 a1bd 5099 8b3c
000000e0: aec9 ff3d b1c4 383c e5eb 89bd c3ec cc3d
000000f0: 7134 39be 24e1 5bbe 5a3c 25bc 2e11 18be
00000100: 709f 82be 5180 e9bd f3aa fb3c f316 8c3c
00000110: 6707 963d 96ab ca3d 692e fa3d 8790 a03e
00000120: 2ef5 38be e98f 97be 8b88 dabe f244 32be
00000130: c892 43be dd55 89be 3223 7dbd 3678 34be
00000140: 2a94 3ebe d2a2 8cbe ef07 c8be 532a b3be
00000150: 0c70 06bf 9661 c9be a103 6abe cfc3 97be
00000160: 1e37 eabd cd2b 323e 1b54 cebd e3df 343e
00000170: 867e 1bbd 3295 cabc 4ed3 fbbb 412b eebd
00000180: cba3 0abe 9124 6abc 3b70 89bb 3089 0d3e
00000190: 9ace 963e 0b56 e33d c033 29be fc3a a03d
000001a0: cd0a 9b3d 50f0 23be 3c87 023e c595 073e
000001b0: e902 f63d dc36 223e 40e3 86bd 2647 cc3e
000001c0: 9189 b33e 7464 4f3e 244e b83e 4b4d ce3e
000001d0: edae b53e 3a85 9e3d 1ba6 fc3d 0327 4abc
000001e0: e186 9dbd 52ec 18be cf6f 17be 39fa e7bd
000001f0: a077 4ebe fc79 7bbe e08d 113c 2a93 d8bd
00000200: fb9f c3be 90d6 5e3e fbaf 36bd c0ab 71be
00000210: aabf 4c3e 496f 053e c1fb 883d ff1a d2be
00000220: 5cdd 8fbe fe8b 09bf f9ba 9cbd 026e 963d
00000230: 0188 50be 4bc8 3cbe ab14 09bd 46ea c2be
00000240: 9736 11bc fa5c 923d 1676 833e 675f b5bd
00000250: 36fe d53d b1cc b53d 32f8 7dbe ee35 5e3c
00000260: 0386 4b3e 7888 713d 4278 04be 16bb ef3c
00000270: d613 54bd 1a2f 243d 252a 2c3d 279b 353e
00000280: aefb 503d 0703 d5bd 98ab b23c 60e9 643d
00000290: 6669 833c c5d7 4bbe 053d 553d 0b01 88bd
000002a0: 1a26 a5be 4d5f 1ebe 6345 43be 144a bdbe
000002b0: 890d 1dbd 410b f63d c96d 28be 772c 78be
000002c0: 707a 8cbe 3421 f53d 42c9 263f 7409 fbbc
000002d0: 7f4f 6d3e 2487 523e 7e45 543e b3ae 953e
000002e0: 5df1 65be 2aff 86bd 5d5c eabc fd6f febe
000002f0: 1532 2abe bac8 74be 9ce7 97bd dc18 eabd
00000300: 4cfc 39bd 79ad 31bd ea7a a0bd c51d 6dbd
00000310: 3348 c43b 7a2a 33be 7862 0c3e 1d3a 8fbe
00000320: ac6e 08bf a7d5 2dbd 2d2d fe3d 4d91 113f
00000330: cdc6 b1be bdf9 893e 86b9 0b3f 0db2 d7bc
00000340: 3f94 80bc 40bf 893d 5bba 00bd 0167 99bc
00000350: 04f3 3b3e 8018 6e3d a4bd 2a3e 2924 7d3e
00000360: 6815 36bd 1896 163d c431 903d 099f 9ebd
00000370: 8bfb e63d 3ecf 703d 19fd 003e 3ade b03d
00000380: d712 bbbd 93d9 123f 6444 dcbe 2b05 0bbe
00000390: 3fc7 ff3e af44 f03d 4658 6ebd 1130 a9be
000003a0: 75a6 3d3e 252f bcbe 5df9 b03c c14c 60bd
000003b0: 1d1f 20bd c8ea c83c 85dd 453d aac4 673d
000003c0: 680c 55bc 6cd1 d3bd 0484 043e 6614 31bd
000003d0: bc87 cabd 4c34 503c 6eb3 033f 80d4 e03e
000003e0: 0f6c eabd 66c6 62be ec6f bebe 71cf e4bc
000003f0: fac3 5e3b 537a f2be ae8e 32bd ec17 31be
0.1531658 -0.031029625 -0.20256774 0.32230714 0.1568853 0.08933427 0.19775058 0.22972116
0.04860669 0.024361128 0.1271356 -0.18561707 0.046941426 0.028027872 -0.7025107 -0.38835567
-0.5575162 -0.8967677 0.063218616 0.26427597 -0.06304712 0.23880784 0.31064582 -0.022043629
0.26263508 0.26465017 0.2160164 -0.3651167 -0.47649932 -0.1458851 -0.014797368 -0.34903502
-0.6030244 0.52134264 0.22932518 -0.548222 -0.25911412 -0.17856741 0.021927558 -0.33527005
-0.14845638 0.1871283 -0.108814605 -0.022036644 0.2561044 -0.22989523 -0.2832535 -0.10856904
-0.25376394 -0.21694644 -0.08028622 -0.26612142 0.05656639 -0.15924007 -0.07866125 0.017040879
0.12489639 0.011277364 -0.067344464 0.10006096 -0.18086411 -0.21472603 -0.01008519 -0.14850304
-0.25512266 -0.114014275 0.030721163 0.017100787 0.07325631 0.09896009 0.12215883 0.31360266
-0.18062279 -0.29601982 -0.426823 -0.17409113 -0.19098961 -0.2682332 -0.061801143 -0.17623982
-0.18611208 -0.27467972 -0.39068553 -0.34993228 -0.5251472 -0.39332265 -0.22852947 -0.29641578
-0.11436294 0.17399521 -0.100746356 0.17663531 -0.03796246 -0.024729345 -0.0076851016 -0.11629344
-0.13539045 -0.014290945 -0.004194287 0.13821864 0.294545 0.11100396 -0.16523647 0.078237504
0.075704195 -0.1600964 0.127469 0.13240726 0.12012274 0.1584124 -0.06586313 0.39898032
0.35065892 0.20253164 0.35997117 0.40293345 0.3548502 0.07740255 0.123363696 -0.012338403
-0.07691742 -0.14933899 -0.14788745 -0.11327023 -0.20162821 -0.24558252 0.008883923 -0.10574944
-0.38207993 0.21761537 -0.04460142 -0.23600674 0.19994989 0.13030733 0.06688643 -0.4103622
-0.2809857 -0.53729236 -0.0765285 0.07345201 -0.20364381 -0.1843578 -0.033466976 -0.3806936
-0.008863113 0.0714664 0.2567603 -0.08856087 0.104488775 0.088769324 -0.2480171 0.0135626625
0.1987534 0.058968037 -0.129365 0.029264014 -0.05177673 0.040083982 0.04203238 0.17734967
0.05102127 -0.10400968 0.021810338 0.055886626 0.016041469 -0.19906528 0.052060146 -0.06640824
-0.32255632 -0.15466042 -0.19069438 -0.3697058 -0.038342986 0.12013865 -0.1644813 -0.24235712
-0.27437162 0.119692236 0.65150845 -0.030644156 0.23174857 0.20559365 0.20729634 0.29234847
-0.22455354 -0.065916374 -0.028608495 -0.49694815 -0.16620667 -0.23904696 -0.07417223 -0.11430523
-0.045406625 -0.043378327 -0.07835944 -0.05788972 0.005990052 -0.17496672 0.13709438 -0.27974024
-0.5329387 -0.042440083 0.1241096 0.56862336 -0.34721985 0.26948348 0.5457996 -0.026330018
-0.01569569 0.06725931 -0.031427722 -0.018725874 0.18354422 0.058128834 0.16673905 0.24720825
-0.04445401 0.036764234 0.07040742 -0.07745177 0.11278447 0.05879139 0.12596549 0.08636136
-0.09134453 0.5736324 -0.43020928 -0.1357619 0.499567 0.1173185 -0.058189653 -0.33044484
0.1852053 -0.36754718 0.02160328 -0.0547607 -0.039092172 0.024526015 0.04830696 0.056584038
-0.013003446 -0.103426784 0.12940985 -0.043232344 -0.098891705 0.012707781 0.5144566 0.43912125
-0.11446392 -0.22145995 -0.37194765 -0.027930947 0.0033991323 -0.4735895 -0.0435931 -0.17294282

feature.conv1.bn.weight f4 [8]
00000000: 4811 863f b283 593f 349c 5e3f 1277 c73f
00000010: 0cf4 7b3f 9d3d 5e3f c9ea 4d3f 3f03 353f
1.0474024 0.84966576 0.869571 1.5583212 0.9841926 0.86812764 0.8043638 0.7070808

feature.conv1.bn.bias f4 [8]
00000000: a2f4 613f 70c0 8abe 45f6 55be 2e90 89be
00000010: ca8e 8a3e 9f05 1fbe dde7 6a3e 1cf2 303f
0.88263905 -0.27099943 -0.20894726 -0.26867813 0.27062064 -0.15529488 0.22940011 0.6911943

feature.conv1.bn.running_mean f4 [8]
00000000: b0a2 74c0 be2c edbf 5aff 8b3d 04a0 c03d
00000010: 64c1 f5bf a02d 143f c8f7 bebe 0c92 eb3f
-3.8224297 -1.8529279 0.06835814 0.094055206 -1.9199643 0.5788212 -0.37298417 1.8403945

feature.conv1.bn.running_var f4 [8]
00000000: 8c09 ff40 8af1 dc40 a385 853f 6b83 8d3f
00000010: 8e34 af40 1893 7b40 c86f b640 6154 6440
7.9699154 6.9044847 1.0431408 1.105573 5.4751654 3.930853 5.701145 3.56765

feature.conv2.conv.weight f4 [16, 8, 5, 5]
00000000: 6d7f 1e3b 571a 6fbd 20d5 52be 31f7 503d
00000010: cb38 ba3d 15a5 7f3d 4eb3 d13d 10fe b3be
00000020: 1bf4 f5be cb64 09be f141 d23e 9a1c 3f3f
00000030: 6967 c93e 98ff 08bd 82e0 1bbe 98d1 0e3e
00000040: eca0 e33e 4847 4c3e 87ad ca3d 5b00 043e
00000050: ad76 5ebe 8989 13be 91c7 cbbe 28e2 94be
00000060: 3ddd 173c f1f6 acbc 9fde 743a a6c5 16bb
00000070: 0042 263c 7bc6 123d dd8e 3bbe e943 4abe
00000080: 7962 2a3c c9c3 cebd 29f9 35be eefc a13d
00000090: 0d89 afbe 1256 efbd 46c6 a5bb 381f 1bbe
000000a0: 6d87 9c3e 5353 893d 6a86 a33d 035f 8f3d
000000b0: 68f3 16be 1705 0a3e dbe7 973d ab9f 213e
000000c0: 2b76 763e c0a5 b23d e54f 5dbe dc79 8dbd
000000d0: 2b82 01bf 8f6c eebe d227 56bd dc1e 933e
000000e0: 242b b43e 3b33 f13c 93d1 01bf 11b4 51be
000000f0: bfaa e93d 5cb3 703f 644d c23e 87bc 44be
00000100: 5d29 a8be d236 15bf c571 dfba 1161 db3d
00000110: d63f 553e 86c1 3e3d 1f84 c93d 9493 623e
00000120: 8cf7 08be b942 8ebc 6b7d 15be 7cac acbc
00000130: 62d8 993c 92cb 92bc 459b 19be 5db3 42be
00000140: 72bf 05bd 52dd 6d3c 3246 efbe e194 dbbe
00000150: 7ede 96be d5c7 503e bced 143f 71c6 243e
00000160: 3d0d 15bf 15a9 a2be 23a4 81bc b1ab 2a3f
00000170: 7fc2 6d3f a0e2 133c 194b b7be 3d65 3cbf
00000180: c1ea a6be 886f b93e b188 31be ec16 893d
00000190: 2005 0d3e 942d e03d 0aba 953d d55d a73d
000001a0: c91a 2e3e c3f7 023e bda5 47bd 1785 1fbe
000001b0: 838e 56be f0b1 6f3a 3db2 b43d ff86 26be
000001c0: cf5e 71be 092e bcbe 6a6f e8bd 48e6 8d3e
000001d0: 5d3a 0a3e bc34 0cbd fad3 1dbe e5ec 1ebd
000001e0: fcf6 913e 7258 9a3e 3c76 de3d 5685 a13d
000001f0: afd2 a83c 1c79 f13d 4edf da39 8dcc 25be
00000200: c66e 31bd d3f7 563d 3134 1f3b d6ac 153e
00000210: f131 3dbe 0792 a2be 4c2a 04be e386 3a3c
00000220: 421c 4c3e 7ecc 693e 3734 1bbe ed93 93be
00000230: 7ea7 373b ef1b 733e 4335 ea3d ea5a 0f3e
00000240: bdc4 1dbd e11b 61be b985 c3bd f686 45bb
00000250: 88cd 37be 431c 29be 940d 813e e674 363e
00000260: 5db7 023e 439a f93b 83a9 cbbd 5ec8 243e
00000270: 92ae ef3d 7388 ec3d a9a4 14bd 4876 2ebe
00000280: 5ffe 343e 0e46 293e 251e 093e bc0a 173e
00000290: 2a6f 6c3d 5127 fb3b 55dd 823d 543e 453c
000002a0: 9ed9 e63d 7f84 b33d 62d7 13be ae31 4dbe
000002b0: b777 8ebd 9e5e 8abd 5cdc 6a3d 49ab 0cbe
000002c0: 5f02 6dbd 7258 4d3d 0dba 053e f88d e6bc
000002d0: 0d6c 40be 7a50 61be 35ce bfbd ddc6 95bd
000002e0: 3a5e 3ebe 3e07 2e3c c8d4 283e b592 e33d
000002f0: 1fc3 f6bc 2ab1 47be b2aa edbd b0fd 143e
00000300: 8aa2 8f3e a501 d23d f045 4dbe 2dc4 5dbe
00000310: 28fc 19be c8ad 013e dea7 3a3e acca 5abd
00000320: f798 8dbc e4f6 32be e14d 513d 445e c13d
00000330: ad16 d6be 086e a4bc 07a8 d4be 52f9 46bd
00000340: 0bf8 aa3e 7495 1bbe 7a54 773e 396c 07bf
00000350: 2681 a2be 81b7 293f 65c4 243f c2cc ec3e
00000360: 33b4 5dbe 0ba8 1cbf 36a7 9b3d dbeb 283e
00000370: 116a 0a3f b47b 3e3d 7e99 d3be 4918 a9be
00000380: e7a4 86be 262e 52be f83e cb3c 3679 98bb
00000390: 51fc 00be 35b3 ddbd 78f8 b0bd 5559 a23e
000003a0: 062a 753e 6a06 78be defe 85be 0306 51be
000003b0: 9a94 a63e 3570 d53e 1248 95be e94b 86be
000003c0: 8d87 cabe 737f 1b3e b628 b33e d676 a7bd
000003d0: 7cac 49be 5ab7 debe 1058 dcbd c0d5 373e
000003e0: 7327 34bd d0c1 7a3c acbe b0be ad31 49bd
000003f0: 5602 c3bc ea7b e23c 0a4e 2abd c508 443c
0.0024184838 -0.05837473 -0.20589113 0.05101699 0.09092864 0.062413294 0.10239278 -0.35154772
-0.480378 -0.13417356 0.41065934 0.7465302 0.39336708 -0.03344688 -0.15222362 0.13947141
0.4445871 0.19949067 0.09896379 0.1289076 -0.21724959 -0.14407934 -0.39800695 -0.29078794
0.009269056 -0.021113845 0.00093410345 -0.0023005991 0.010147572 0.035833817 -0.18316217 -0.19752468
0.010399454 -0.10095937 -0.17770828 0.07909571 -0.3428425 -0.116863385 -0.0050590364 -0.15148628
0.30572072 0.06705346 0.07984622 0.07000544 -0.1474129 0.13478504 0.0741727 0.15783565
0.24068515 0.087230206 -0.21612509 -0.069080085 -0.50589246 -0.465672 -0.05228407 0.2873448
0.35189164 0.029443374 -0.5071041 -0.20478846 0.1140952 0.9402368 0.3794967 -0.19212542
-0.32844058 -0.58286774 -0.0017047456 0.10711873 0.20825133 0.046571277 0.09839653 0.22126609
-0.13375682 -0.0173658 -0.14598624 -0.02107834 0.018779937 -0.017919336 -0.15000637 -0.19013734
-0.03265328 0.014518099 -0.46733242 -0.42887023 -0.29466623 0.2038873 0.58175254 0.16091324
-0.58223325 -0.31769624 -0.015825337 0.6666823 0.928749 0.0090262 -0.35799482 -0.7359198
-0.32600978 0.36217904 -0.173373 0.06693825 0.13771486 0.10946193 0.07310875 0.08172194
0.17002405 0.12789826 -0.048742045 -0.15578113 -0.20952801 0.0009143641 0.08823059 -0.16262434
-0.23571323 -0.36753872 -0.113493755 0.27714753 0.13498826 -0.03422998 -0.15412894 -0.03880014
0.28508747 0.30145603 0.10862395 0.0788676 0.020608274 0.11790678 0.00041746575 -0.16191311
-0.043318532 0.052482437 0.0024292583 0.14616713 -0.18476082 -0.31752035 -0.1290676 0.011384699
0.19932655 0.22831914 -0.15156637 -0.28823796 0.0028023417 0.23741125 0.1143594 0.13999525
-0.038517702 -0.21983291 -0.0954699 -0.0030140257 -0.17949498 -0.16514687 0.25205672 0.1781803
0.1276526 0.0076172664 -0.09944441 0.16092059 0.117032185 0.11549463 -0.036289845 -0.17037308
0.1767516 0.1653063 0.13390405 0.14750189 0.0577232 0.007664599 0.06389872 0.012038786
0.11271976 0.08765506 -0.14437631 -0.20038483 -0.069564275 -0.06756328 0.057339057 -0.13737215
-0.05786359 0.050133176 0.13059254 -0.028143868 -0.18791218 -0.22003356 -0.09365503 -0.07313321
-0.18590632 0.010621844 0.1648742 0.111119665 -0.030122338 -0.19501176 -0.11604823 0.14549899
0.28053695 0.1025422 -0.2004621 -0.21656866 -0.15037596 0.12663949 0.18228099 -0.05341594
-0.017284853 -0.17476994 0.05109966 0.09441808 -0.41814175 -0.020071998 -0.41534445 -0.048577614
0.33392367 -0.1519373 0.24153319 -0.5289951 -0.31739157 0.6629563 0.64362174 0.46249968
-0.21650772 -0.61193913 0.07600252 0.16496222 0.54068094 0.04650469 -0.41328043 -0.3302634
-0.26297686 -0.20525417 0.0248103 -0.0046531213 -0.12596251 -0.10825197 -0.08641142 0.3170878
0.23941812 -0.24221197 -0.2617101 -0.2041245 0.3253525 0.4168717 -0.29156548 -0.2622979
-0.39556542 0.15185337 0.34991997 -0.08176963 -0.19694704 -0.4349926 -0.10758984 0.17952633
-0.043982934 0.015304998 -0.3452047 -0.04911964 -0.023804825 0.027646977 -0.04157833 0.011964981

feature.conv2.bn.weight f4 [16]
00000000: 8575 a03f 06b7 6e3f 4fa3 913f cc0d bf3f
00000010: 27d8 6d3f 83f8 853f 71de 6e3f a1ba 593f
00000020: ad31 673f f499 553f adde 853f 62d1 563f
00000030: 86f9 a63f 50ca 893f 8b39 5d3f 225c 693f
1.2535864 0.9324802 1.1377963 1.4926085 0.9290795 1.0466465 0.9330817 0.850504
0.90310174 0.8343804 1.045858 0.8391324 1.3044899 1.0764866 0.8641593 0.9115621

feature.conv2.bn.bias f4 [16]
00000000: 9703 40be 6819 79be 18c7 01be 028f 00bf
00000010: 101b fd3c 886c 26be b0bd c43e 6688 14bf
00000020: ea5e b43e 61e4 243e 08e6 483d b722 a23e
00000030: fc04 b63e 8159 88be fde5 983e 2317 c03e
-0.1875137 -0.24326098 -0.12673604 -0.5021821 0.030896693 -0.16252339 0.3842597 -0.5802063
0.35228664 0.16102745 0.0490475 0.3166711 0.35550678 -0.26630786 0.29862967 0.37517652

feature.conv2.bn.running_mean f4 [16]
00000000: 42a4 fc3c 2a73 0340 6d44 0ac0 a801 bec0
00000010: 6691 f9bf 30fb 70bf 937f 5fbf cc34 69c1
00000020: efab bcc0 3898 3c3e 3ec3 c5c0 512b 31bf
00000030: 00d5 5dbf 6bf6 dbc0 76ff f9bf ae06 1bc0
0.030840043 2.053904 -2.1604264 -5.937702 -1.9497497 -0.9413328 -0.8730404 -14.57539
-5.895988 0.18417442 -6.1800833 -0.6920672 -0.8665314 -6.8738303 -1.9531085 -2.4222827

feature.conv2.bn.running_var f4 [16]
00000000: 83eb 2c41 26cf 4941 6381 9541 68c0 3242
00000010: 98bf 4241 3c07 1041 13cc c641 9231 8741
00000020: c75f c041 e250 7641 42e3 1342 ce60 e041
00000030: 0e10 8541 beb3 a941 c11f 8e41 3692 c441
10.807498 12.613073 18.688177 44.687897 12.171776 9.001766 24.849646 16.899204
24.046766 15.394747 36.97193 28.047268 16.63284 21.212765 17.765505 24.571392

feature.conv3.conv.weight f4 [16, 16, 3, 3]
00000000: 4bc1 48be 7180 7fbe 0b4f ab3e 19b0 483c
00000010: 0d73 8abe abf8 88be b579 abbe 1d5c a0bd
00000020: 1818 edbd d0d6 0dbe feb8 c9be 4702 92bd
00000030: 9780 47bc aa24 babd a025 5d3e fb72 09bd
00000040: 0932 1ebe 3848 4e3d d9fa c0bc 1003 48be
00000050: 2055 623e 9a03 d73e aa9b 00be 5a50 433e
00000060: 5bd6 963d ace2 34be 7c5d 97bc b1a0 e8be
00000070: 7e8a b2bd 0541 0c3e 169a dc3c d2bf 023f
00000080: e415 1f3e 7a0f 763d 62cc 2bbd c803 ab3d
00000090: 3ded 413e 8b87 983e 74fa 9a3e e009 4e3e
000000a0: 0224 443d ee48 dcbd 113d 18bd fbfa 93bd
000000b0: 12f0 523c 2ba4 033b e569 cebc afc4 86bd
000000c0: 0e29 22be 21e7 a4be dd62 9b3e 6a94 06bf
000000d0: 3878 e7bd 8b79 7abd 2096 91be 92d2 503e
000000e0: e670 b73e a1ee dbbd cf20 05bf 6943 cdbd
000000f0: 3188 37be 4dec 9dbe 2762 7bbe b261 bcbe
00000100: 66c4 f2be cd19 f8be d089 cfbe be1d 6bbe
00000110: f317 1fbe f677 b3be 186a 483c a732 853c
00000120: 1dba 2abe a42e 69be d2e4 a2bd b05b 28be
00000130: e030 c13d 889e a2bd bfd7 873d 2592 0c3f
00000140: 7868 0f3f 4af5 67be 3276 84bc 82e5 bc3e
00000150: aa98 1dbe 68d3 1dbe 2a3b 23be 7aaf c0bd
00000160: 2f75 99be 5e6f 26be d3fc b5be a256 40be
00000170: d4b6 dfbd a4dc 8a3d 90b7 0a3e 9875 543e
00000180: c939 45be 2b1c 64be 5c2b 4cbe 9a7e 86bc
00000190: eeb5 b6be f678 bcbe afd6 07be b171 0bbf
000001a0: faf1 76be 22f8 eabe 5da2 06bf c656 6cbd
000001b0: 8a92 5bbe 55c9 c23e 9834 bcbe 22c6 80bc
000001c0: fd21 a53e a56a c7be d84b 243d 7449 23be
000001d0: 0899 2c3e a616 02bd 6e2e c43e 7133 e6bd
000001e0: 9e99 9a3c 01db 053f 8acd e03d 2e6e 183e
000001f0: e13b 1f3e 2c2f 8c3e 922c a53e b6d0 973e
00000200: f1c4 d23d 515b c33c 5c32 653e 7d30 f23d
00000210: 118c 6d3d ca25 71be b569 a2bd e78d 12bd
00000220: 95d5 e8bc 9aa4 cabe af46 4a3d 74f2 933d
00000230: 4eaf babe e864 243e 60c1 3e3d 7017 aebd
00000240: 5c91 1dbe bada b4be b624 6dbe 6188 4a3e
00000250: 1d3e e83e 0a2a 14be f0ad a03b 75f2 74be
00000260: f0e6 80be 6343 63be f4e8 f4be 3ee2 29be
00000270: 01a1 0f3e 4571 1ebd 652d ce3d 7a57 893d
00000280: de3a cb3c 0275 2b3c 4c3a dbbc f9ea d83b
00000290: aac6 f1bd b881 da3e b616 d93d 3a30 d6bd
000002a0: c80e 98be b06d 82be 5b5d a5be 0160 db3e
000002b0: 10fa 64bd acec 01be d031 8abd ef78 2cbf
000002c0: 06e0 093f ac89 433e 24be 613e 024e 6dbd
000002d0: 32ff 203d 2491 683e c3d9 a83d 510e 0c3e
000002e0: 00b5 f73e 547e ac3d b268 71be ce11 55bd
000002f0: 24de 72bd 7207 9cbe e1b2 cd3c 7445 c6be
00000300: 17fc e33b b78e ef3e d9e2 aabe 7cf3 823e
00000310: 32ae d5bc 0f35 ddbd b128 62bd 4d12 93bd
00000320: 076b a73e 996f 0b3e 4a20 ccbd ae21 333d
00000330: e467 94be b23f fdbe be78 fdbe 9dd4 993e
00000340: f752 3b3e 5b63 b43d 7804 8b3d ad43 89be
00000350: bd4a 9bbe 154a 63be 0784 08bf 1268 a1be
00000360: 9cbe bf3e cb25 133d e7e8 293e 7976 63be
00000370: ffaa 80be f03c 09be 5d58 823e 1392 d73d
00000380: 76f7 033e 4ccd 8bbc 3f09 60bd fff2 47bd
00000390: 8fd0 353e 4092 1c3e ba9d 09be 7a0b e63d
000003a0: 94ed 8ebd e937 50be 6e51 37be 0f6c 3abe
000003b0: 34f0 bebd 9dc8 45be 204f b4be 336a d5bd
000003c0: fc16 363e 21a2 3c3e 6bc7 5c3d 7b26 713d
000003d0: 646e 2a3d 2707 9c3d 86bb 703d ba35 3cbe
000003e0: 072e bcbe d7d6 56be 4745 a2be ee67 52be
000003f0: 7a06 a8be 214c fcbe 4a73 4d3e 0ac7 7c3e
-0.19604985 -0.2495134 0.33458742 0.012249016 -0.27040902 -0.2675222 -0.33491293 -0.07830069
-0.11576861 -0.13851476 -0.3939895 -0.071293406 -0.012176654 -0.09089024 0.21596384 -0.03355692
-0.15448774 0.050361842 -0.023557113 -0.19532418 0.22102785 0.41994935 -0.12559381 0.1907362
0.07365104 -0.17664593 -0.018477194 -0.45435098 -0.087178215 0.13696678 0.026928943 0.51073945
0.15535694 0.060073353 -0.04194296 0.083503306 0.18938155 0.2979091 0.30269206 0.20120955
0.047885902 -0.10756098 -0.037167612 -0.07225605 0.01287462 0.0020086865 -0.025196979 -0.06580483
-0.15835974 -0.32207587 0.30348864 -0.5257021 -0.11302227 -0.06115107 -0.2843485 0.20392826
0.35828322 -0.10738874 -0.52003187 -0.10022623 -0.17923047 -0.30844346 -0.24549161 -0.36793286
-0.47415465 -0.48457184 -0.4053483 -0.22960564 -0.1553648 -0.3505246 0.012232326 0.016259504
-0.16672559 -0.22771698 -0.079538 -0.16441226 0.0943315 -0.07940394 0.06632947 0.549105
0.5601878 -0.22652164 -0.016169641 0.3689385 -0.15390268 -0.15412676 -0.15940538 -0.094084695
-0.29972216 -0.1625342 -0.35544452 -0.18783048 -0.109235436 0.06780365 0.13546586 0.20747983
-0.19260325 -0.2227637 -0.19938415 -0.01641779 -0.35685676 -0.36811036 -0.13265489 -0.54470354
-0.24115744 -0.45892435 -0.52591497 -0.05769994 -0.21442619 0.3804423 -0.36758876 -0.015719477
0.32252494 -0.3894855 0.040111393 -0.15945989 0.16855252 -0.03175988 0.38316673 -0.112402804
0.018872079 0.522873 0.109767035 0.1488578 0.15550186 0.2737974 0.32260567 0.2965142
0.1029147 0.023847254 0.22382492 0.11825655 0.057994906 -0.23549572 -0.07930318 -0.03577986
-0.028422156 -0.39578706 0.049383815 0.07223979 -0.36461872 0.16054118 0.046571136 -0.08500564
-0.15387481 -0.35323125 -0.23158535 0.19778587 0.4535989 -0.14469162 0.0049035475 -0.23920615
-0.2517619 -0.22193675 -0.4783398 -0.16590211 0.14026262 -0.03868224 0.10067252 0.06706138
0.024808343 0.010464909 -0.026761197 0.006619808 -0.1180547 0.42677093 0.10600035 -0.10458417
-0.29698777 -0.2547431 -0.32297787 0.42846683 -0.05590254 -0.1268794 -0.06747782 -0.6737203
0.5385746 0.19095486 0.22045189 -0.057935722 0.039305873 0.22711617 0.0824466 0.13677336
0.4838028 0.08422533 -0.23575094 -0.052018933 -0.05929388 -0.3047443 0.02510971 -0.38724864
0.0069575417 0.4678857 -0.33376196 0.2557639 -0.02608404 -0.10801136 -0.055214588 -0.07181225
0.32698843 0.1361679 -0.09967096 0.04373329 -0.28985512 -0.49462658 -0.4950618 0.30045024
0.18293367 0.08808013 0.06787962 -0.26809445 -0.30330458 -0.22196229 -0.5332646 -0.31524712
0.3745011 0.035924714 0.16592751 -0.22213162 -0.2513046 -0.13402152 0.2545804 0.10525908
0.12887368 -0.017065667 -0.054696318 -0.048815724 0.1775534 0.15290165 -0.13439074 0.11232658
-0.06978908 -0.20333828 -0.17902157 -0.18205284 -0.09323159 -0.19314809 -0.35216618 -0.104206465
0.17782205 0.18421222 0.053901117 0.05887459 0.041609183 0.07618552 0.058772586 -0.1837987
-0.36753866 -0.20980392 -0.3169348 -0.20547459 -0.3281744 -0.49276832 0.2006351 0.24685302

feature.conv3.bn.weight f4 [16]
00000000: a76c 943f a8fa bd3f cee7 413f 6a1c 693f
00000010: f846 5a3f d492 723f 5321 923f 2c33 583f
00000020: 640c 783f 3df2 713f e68f 6c3f 8875 7c3f
00000030: 8237 7f3f 0b8b e03f 886d 9a3f 9dee 943f
1.1595658 1.4842119 0.7574433 0.9105898 0.8526454 0.9475529 1.141642 0.8445308
0.96893907 0.9451025 0.9240707 0.9861684 0.99694073 1.7542433 1.2064676 1.1635319

feature.conv3.bn.bias f4 [16]
00000000: da21 84be 8817 8b3e a3e3 06be e4b1 4dbe
00000010: 3412 bdbc d1e7 5fbe 4817 103d 18e9 53bf
00000020: eb94 803e 22e3 3d3d ad34 54bc 3f3e 543e
00000030: e40a d73e 66f9 e03e 7e91 ab3e 4fb1 3a3d
-0.25807077 0.2716639 -0.13172774 -0.20087391 -0.023079969 -0.21865775 0.035178453 -0.8277755
0.25113615 0.04635919 -0.012952012 0.2072687 0.42000496 0.43940276 0.3350944 0.04557925

feature.conv3.bn.running_mean f4 [16]
00000000: 18dc 2ec0 dd61 d6bf 293f d0bf 9f54 3ac0
00000010: 3143 b8bd 1966 47c0 eb5b 4fbf c83e bf40
00000020: d4de 073f 5933 a9bf 52ed 603e 9e26 d6bf
00000030: d9f3 e33f 8850 0fbf c5f6 2ec0 4551 e4bf
-2.7321835 -1.6748616 -1.6269275 -2.9114149 -0.08997191 -3.1156065 -0.8099963 5.9764137
0.53074384 -1.3218795 0.2196553 -1.6730535 1.7808791 -0.55982256 -2.7338116 -1.7837301

feature.conv3.bn.running_var f4 [16]
00000000: 331e d640 328d ec40 3bcd 2341 7d52 b040
00000010: 4c77 1341 b235 e740 60a9 5b40 9ebd 8a40
00000020: 5109 ee40 581d cb40 63ea 0a41 7667 0e41
00000030: 3499 0441 8c1b 8540 fef8 3941 8ca0 ff40
6.6911864 7.3922358 10.237605 5.5100694 9.216625 7.2253046 3.4322128 4.3356466
7.4386373 6.347332 8.682223 8.900259 8.287403 4.1596127 11.623289 7.988348

feature.conv4.conv.weight f4 [16, 16, 3, 3]
00000000: 2ca8 5b3d 0a6e 833c d903 5a3e a8ef ffbd
00000010: a30a 7cbd 345d 12be 001c d0bd 1270 c23d
00000020: 1bc5 ecbc 9e22 c2be ee6d 2bbe 2c0c 253f
00000030: 624d 32be ea3d 21be d1e2 783e 41e0 223e
00000040: 863b a9bd c73b 9a3d 23e5 603e d936 d03d
00000050: de91 e6bc 8192 023e ee21 ebbc 35a7 b5be
00000060: 1d79 023e 927f 49bd db33 3cbd 03cc 4dbc
00000070: d6f8 003e e204 f4bd ddda 32bd 8165 e83c
00000080: 9d75 e03d 64b6 f2bd 75a0 8e3d 44ba 623e
00000090: b4f3 abbe aa88 71bd 35b4 cb3d 35cf f3bd
000000a0: 3d4e 5c3d 1185 dd3b 8cee cdbd 44f7 40be
000000b0: fe77 04be 89ba e0be 4711 acbe 4da6 3a3e
000000c0: 22d0 05bf 632b 52bd 41e1 0f3e 571a 72be
000000d0: c4b5 2fbe d592 0dbd a70e 28be 1a75 e43e
000000e0: 9bb3 773e 06e7 46bd c149 a93e d10b 5d3e
000000f0: d96a cabe 2f52 1bbe 415f 6dbe 1c5e 0e3f
00000100: cae7 943e a191 04bd 946d eabd 092f c93d
00000110: 8076 e6bd aa04 fa3d e90a 903d b790 22be
00000120: c93a ffbd f2b8 3a3e 8cb6 e93d 3eca f1be
00000130: 68fb d33b 6f95 9c3e e5be 47bc c6b0 803e
00000140: b237 c33e cb44 9ebe b15f 86be b4ba 22be
00000150: 0dd0 0bbe 88e6 9bbe f07f 5bbe 52a3 623e
00000160: 70b0 93bd cf96 80bd 8ec0 05be 279f 35be
00000170: 97c6 523c 17b3 95be 50c5 6abe f1a5 6b3d
00000180: 902f bdbd 9d45 713d e897 813d 2ab3 f13c
00000190: b7e2 403f b3c8 663e d6a4 b7bd df03 d23e
000001a0: 78ac 233e dafd 65bd 99df 0cbe 8ff8 0fbe
000001b0: 2824 70be 1c78 ea3e 80ed 963e c8a7 663e
000001c0: 5d80 5e3f 0536 bc3e 82f1 cb3c 90d5 663e
000001d0: 1a1c fdbd b286 823e 38dc c0bd d758 35bd
000001e0: e809 83be c54a c33d 8c64 123e 89e8 1f3e
000001f0: e895 1cbe 70f5 be3d 8978 f5be a496 07be
00000200: 9b86 babd 04dc 9dbe 5023 debe e45b ac3c
00000210: abc9 2dbe e448 09bf dce0 39bd e2d6 91be
00000220: 3762 95bd ae57 9f3d 81ec 82be c7a1 d63d
00000230: ee78 cf3e a8c4 383e ded3 533e 2b0a e83d
00000240: b34a 6bbe 9ea3 77be a549 df3e c352 3cbf
00000250: 9345 d3be f113 743e 9aae b2bc 6809 17bd
00000260: 8ae7 83bd 69c6 9bbe 764c 653e c6bb a4be
00000270: 78ae 593e b78e fc3e 04cc 0dbf 64a2 d73e
00000280: a774 163e d9bf 75be 6933 b5bd 27ea b4bd
00000290: b4fa 65bc dec7 763d d714 cdbc d7aa a93d
000002a0: 8c02 8dbc e928 4b3d c3dc 993e b273 f8bd
000002b0: 0454 86be 0d1a 543b 8f09 8ebe 9618 98be
000002c0: be74 573e c00e 1c3e 9065 a13d b82a b2bd
000002d0: 5a65 5ebe 208c b6be aa95 9abe 2416 a53d
000002e0: 7e0e 3dbe da77 43be d84d a83a 1582 e2bc
000002f0: 907b f8bb 5890 e23c 8827 ad3e b992 113d
00000300: 6f10 ac3e 9af5 b83e b575 c2bd ab70 ef3e
00000310: 9e79 983e ed92 2cbe a206 92be 8b0a 71be
00000320: 05c0 acbe eec3 703e fed0 00bd 9596 f03c
00000330: 743f c13e a42f a8bd 2106 da3d 3f51 fa3c
00000340: 86a7 cd3d f8e1 863e 6fac 93bc ca06 42be
00000350: cb91 3fbe beaa d23e b958 853e 6374 473e
00000360: 987b 503e 0beb d1bd c083 a8be 6f52 8a3e
00000370: 7bc9 1fbe f9f4 b4be 2e35 613e bf1d b7bd
00000380: 0fed 4abe 17b3 e9be cd9c 58be 7161 913d
00000390: 29f2 09bf 5522 2abe f29b 7c3d 1c7b 94be
000003a0: cbef c23d 6088 3f3e 3e58 f9be c014 2d3e
000003b0: 5080 c33e 0fda 383d 1fab ea3e a440 543e
000003c0: 4c61 8b3e 47ba ac3e 8eec 3c3e 8a7a 733e
000003d0: b644 8cbd fbfc 5abe 5b14 273e 5ef9 81be
000003e0: 333d 6abe d1ab 863e fb67 f2bc 0b6d b1bb
000003f0: a341 95be 6a26 03be 4453 c83d 1189 ecbc
0.053627178 0.016043682 0.2129053 -0.12496883 -0.06153358 -0.14293367 -0.101615906 0.09494032
-0.028902581 -0.37917036 -0.16741154 0.644717 -0.17412332 -0.15746275 0.24305274 0.15905859
-0.08263306 0.07530933 0.21962409 0.10166711 -0.028145727 0.127512 -0.028702702 -0.3547913
0.12741514 -0.049193926 -0.04594789 -0.012560847 0.12594923 -0.11914994 -0.043665756 0.028368713
0.10959933 -0.118511945 0.069641985 0.22141367 -0.33584368 -0.058968224 0.09946481 -0.11904756
0.05378555 0.0067602475 -0.10055265 -0.18844324 -0.12936398 -0.43892315 -0.33606932 0.18227501
-0.5227071 -0.051310908 0.14050771 -0.2364286 -0.17159182 -0.034563858 -0.1641184 0.4462059
0.24189608 -0.048560165 0.33064082 0.21586539 -0.39534643 -0.1516807 -0.23180868 0.5561235
0.2908309 -0.032365445 -0.114466816 0.09823424 -0.11253071 0.12207921 0.07033331 -0.15875517
-0.12462384 0.18234614 0.11411771 -0.4722461 0.006469179 0.3058276 -0.012191509 0.25134867
0.3812843 -0.3091186 -0.26244882 -0.15891534 -0.13653584 -0.3044932 -0.21435523 0.22132614
-0.07211387 -0.062787645 -0.13061735 -0.17736493 0.01286473 -0.29238197 -0.22926831 0.0575313
-0.092375875 0.05890428 0.06327802 0.029504377 0.7534594 0.22537498 -0.08966987 0.41018578
0.1598376 -0.056150295 -0.1375717 -0.14059661 -0.23451293 0.4579476 0.29478073 0.22524941
0.86914617 0.36759964 0.024895433 0.22542405 -0.123588756 0.2549339 -0.094170034 -0.044274177
-0.25593495 0.095357455 0.14296168 0.15616049 -0.1529156 0.09324157 -0.47943524 -0.13241059
-0.09107705 -0.3083192 -0.43386316 0.02103991 -0.16971461 -0.5362685 -0.04538046 -0.28484255
-0.072941236 0.077803954 -0.25571063 0.10480075 0.4052195 0.18043768 0.2068629 0.113300644
-0.22977714 -0.24183509 0.43610874 -0.73563784 -0.41264018 0.23835732 -0.021811772 -0.036874205
-0.06440647 -0.30424812 0.22392449 -0.3217451 0.21257961 0.49327633 -0.5538943 0.42116082
0.14692937 -0.23998965 -0.08847696 -0.088337235 -0.014036823 0.060249202 -0.025034351 0.08284538
-0.017213129 0.04959956 0.3005124 -0.12131442 -0.26235974 0.003236416 -0.27741668 -0.29706258
0.21040627 0.15240002 0.078807 -0.08699554 -0.2171835 -0.35653782 -0.3019231 0.080608636
-0.1846256 -0.19088688 0.0012840582 -0.027649919 -0.007583089 0.02765672 0.33819222 0.035540316
0.33606288 0.3612488 -0.09495107 0.46765646 0.29780287 -0.16852923 -0.28520685 -0.23539178
-0.3374025 0.23512241 -0.03144931 0.029368678 0.37743723 -0.08212212 0.106457 0.03055632
0.10041718 0.26344275 -0.018026559 -0.18947902 -0.1870796 0.4114589 0.26044253 0.19477992
0.20359647 -0.10249909 -0.32913017 0.27016017 -0.15604202 -0.3534315 0.21992943 -0.089412205
-0.19816993 -0.45644447 -0.21153565 0.070986636 -0.5388513 -0.16614659 0.06167216 -0.29000175
0.09518393 0.18704367 -0.48700136 0.16902447 0.38183832 0.045129832 0.4583368 0.20727783
0.2722267 0.33735868 0.18449613 0.23777214 -0.06849043 -0.21385567 0.16316359 -0.25385565
-0.22874908 0.2630296 -0.029590597 -0.0054146103 -0.2915164 -0.12807623 0.09781507 -0.028873952

feature.conv4.bn.weight f4 [16]
00000000: 0608 6a3f d06d 6a3f f030 893f 54a2 5c3f
00000010: 63c5 553f 18c0 543f 62ef b43f 3dcb 5d3f
00000020: 7222 5f3f 18de 1e3f e09d 803f a1fa 813f
00000030: 43fd 913f b09c b23f e215 5b3f 3496 953f
0.9141849 0.9157381 1.071806 0.86185193 0.83504313 0.8310561 1.4135554 0.8663824
0.87161934 0.6205764 1.004818 1.0154611 1.1405414 1.3954067 0.85580266 1.1686463

feature.conv4.bn.bias f4 [16]
00000000: 8f5f 903d eb5d 493d 52f4 01be e049 61be
00000010: 9639 043f 1834 13be 3db1 4abe 00dc d53e
00000020: 312a d53e 7fbd 0a3d e32c 04bf 879b 263f
00000030: 725d 853e 831b 8cbe 03b3 e53d d050 2d3d
0.07049476 0.049161833 -0.12690857 -0.22000837 0.5165037 -0.14375341 -0.19794174 0.4176941
0.41633752 0.033872124 -0.5163099 0.65081066 0.26047856 -0.2736474 0.112157844 0.042313397

feature.conv4.bn.running_mean f4 [16]
00000000: 3c99 273e a103 3abf a2e5 fabf e572 1f3f
00000010: af1a 54c0 ff3b 63bf 48c6 8ebf 577e 91bf
00000020: ff35 04bf c1fd f8bf 7b40 fbbf 09e1 36c0
00000030: 28cc 93c0 2f0c 59bf 8b2c 39c0 31aa 74c0
0.16367048 -0.7266179 -1.9601328 0.6228469 -3.3141286 -0.8876342 -1.1154261 -1.1366681
-0.5164489 -1.945244 -1.9629053 -2.857485 -4.6186714 -0.84784216 -2.8933437 -3.8228877

feature.conv4.bn.running_var f4 [16]
00000000: c24b 3f41 310c 3141 72fd f340 a73f 3141
00000010: ee5a 2a41 6e98 8041 f412 c640 94a9 1141
00000020: b9db 1d41 f023 6b41 2877 f840 323f 4a41
00000030: 010f 5f41 4be6 0841 6b96 8d41 41fd 0c41
11.955996 11.065476 7.624688 11.07804 10.6472 16.074429 6.1898136 9.103901
9.866143 14.696274 7.7645454 12.640429 13.941163 8.556224 17.698446 8.81183

feature.conv5.conv.weight f4 [32, 16, 5, 5]
00000000: 92ec c23d 20e1 0ebe c1b4 a43d 252c 13bd
00000010: d350 10be bc2f 2b3e 5657 b33d 1181 8b3d
00000020: 9cb0 663d 8cb8 d7bd 785f a93d 9047 903d
00000030: f1d3 a13c 0a0d 4fbd f9d3 53bd 5184 70be
00000040: 4c24 05bc b896 13be 222d 903c cf68 173e
00000050: 2f87 60be 26fa 76be fc61 1cbe 8fdf 023e
00000060: be1a 2f3e da6c 78be 7b46 87be 15ef afbe
00000070: a680 cfbe 9d5d 19bd 30db 64be 2896 bfbe
00000080: e82d 05bf d9f1 00bf 68bf b6be 8112 153d
00000090: ff52 8cbe db5b 1bbe 3a8a 98be 6a09 37be
000000a0: 21aa 8cbc 4462 523e 1c16 7a3d 95ba 9ebc
000000b0: 3320 223e 6f14 8e3c 4a54 173d 2fd1 863d
000000c0: 59df 033e 3d55 563e f3f7 213e be6b 4ebe
000000d0: 7b23 2cbe f42e ecbd 187e ad3c 02e2 43be
000000e0: bbb5 4abe 4391 103c d5c1 3fbe 3e65 6cbe
000000f0: 69a3 6b3d 5d6f 923e 9836 4b3e bb69 fd3d
00000100: 0067 383e bdcf 593e bea1 dd3e f466 0e3f
00000110: 7c91 013f 872a 203e 0bb1 83bc 8e6c da3d
00000120: 4a2d d33d 01a4 9a3c 46e8 8ebd ea89 fd3e
00000130: 8446 f73e a26c dd3e 2bd1 a23e 29eb 9c3e
00000140: 9dc9 503e 787d 0d3e 9f8b 423d 94d2 8abd
00000150: e8ab 05be 6a81 323e aef5 f73d 83d4 91bd
00000160: 369e 39bd cb13 1ebd c452 123e d124 6a3c
00000170: 3f2c 50bd 8940 9fbd f9d6 3bbe a33c b3bd
00000180: e743 743d eaea 0cbe 9c0c 0abe 73bd 8abe
00000190: 4a9e 2cbe 9a5a 89be 2777 c5be b28e 37be
000001a0: 8658 dbbd 0a3c 8dbc 511e 98bc 301d f33e
000001b0: 0148 033f e765 893e 8d32 1bbe 32a8 1dbe
000001c0: c3bf f63c f955 5d3d c5dc d2bd 4d1f 57bd
000001d0: a681 c93b d1d7 08be f4e8 27be 75f9 4ebe
000001e0: fd15 6fbe 1b07 263e 6031 a53d 4619 503e
000001f0: 7c62 d3bd 27fd c33e 04cc cb3e d6e2 833e
00000200: cb91 b33e 9f56 1cbd e9ff 533e ddaf c43e
00000210: 525e f43e 772d b23e 7438 3f3d 8779 cdbc
00000220: eff3 30bb 7b59 9e3d aacf 9dbd 81a3 debd
00000230: 503d 01be 87d3 2fbe 97ba bfbd 1a28 16be
00000240: 3d20 1fbe 2693 31be f67f afbe 1937 f0be
00000250: c6b2 e2be 7db5 24be 9c06 bcbe bda5 09bf
00000260: 317f 17bf 961f 02bf e695 64be 3512 91be
00000270: 245e 13bf 2e08 01bf 7abf f0be 853b 52be
00000280: fd07 b43c 5894 503e a6f9 b03e 537d de3e
00000290: 617e 00bd 9f49 9c3e 1c85 0c3f aefc 3b3f
000002a0: 89fd ae3e 60c9 08be a968 b83e 494d bb3e
000002b0: b5f3 6f3e c008 68bd 047e 6fbe fdf7 403e
000002c0: 5a48 f5bd 85c2 31be 74d8 16be afe1 0ebe
000002d0: 0dbc 3cbe c62a 5ebd 4015 9e3c 2a45 b63d
000002e0: cfc9 463e be67 83be 8423 6c3e 1c5b 4fbd
000002f0: c45b 21bc 3cd4 6c3d 3660 013d 54a9 373d
00000300: 5f11 4abe 713c c3bd 0afc ce3d 7a39 2ebd
00000310: 14fa 85bd 91a4 34bd 9965 bf3d 5cd0 c13d
00000320: e3f4 b8bd 085a cdbe 18c7 a3be d230 24bd
00000330: 2f34 713e 69fa 863e 63b9 5e3d 4f8b 9a3d
00000340: 0f68 5e3e 9800 c03e 47b1 1a3d aad1 71bd
00000350: 0e5d c13d 5f90 c73b ebf3 913d 685a fe3c
00000360: b7c2 c7bd 6b79 64be ab31 c9be 6c67 75be
00000370: 755b f83d e33d 8fbc 3802 02be 83c6 98be
00000380: b4ff 30be 1352 b23e f45a 663e 05fd 8f3e
00000390: 24c8 803e 2aaa 3d3e c70c d73d e52c 30ba
000003a0: 7b57 debb 1d4c 46bd 3296 4bbd 834d f3bd
000003b0: d91e e5bd cba0 62be d26a 96be 3d20 39be
000003c0: 23c2 a7be 6909 b8be fc24 d9be 4393 abbe
000003d0: dd19 a2be ccfb 2ebe 0c63 6dbd 70b2 2b3d
000003e0: 325a 0abc fb20 433c 0ce3 a63e fd04 d73d
000003f0: 2049 583e befb 4c3e 3391 edbd 533e 34bd
0.095177785 -0.13953066 0.080422886 -0.03593077 -0.14093332 0.16717428 0.087568924 0.06811727
0.05632077 -0.105332464 0.08270162 0.070448995 0.019754382 -0.050549544 -0.051715825 -0.23487975
-0.00812633 -0.14412963 0.017599646 0.14786075 -0.21926568 -0.24118862 -0.15271753 0.12780593
0.17100045 -0.24260274 -0.2642096 -0.34362093 -0.40527838 -0.037442792 -0.22349238 -0.37419248
-0.5202317 -0.5036903 -0.35692906 0.0363946 -0.2740707 -0.15171759 -0.29792958 -0.17874685
-0.017170968 0.20545298 0.06105624 -0.019376079 0.15832596 0.017343728 0.03694562 0.06582867
0.12878169 0.20930953 0.15817241 -0.20158288 -0.1681041 -0.11532393 0.02117829 -0.19129184
-0.19795887 0.008823696 -0.18726285 -0.23085496 0.057528887 0.28600588 0.19845045 0.12373682
0.18008041 0.21270652 0.43287462 0.55625844 0.50612617 0.15641223 -0.016075632 0.106652364
0.103113726 0.018877031 -0.069778964 0.49519283 0.48295987 0.43246943 0.31800207 0.30648163
0.2038941 0.13817394 0.047496434 -0.06778446 -0.13053858 0.1743218 0.121074066 -0.071206115
-0.045316897 -0.038593095 0.14289385 0.014291004 -0.050823446 -0.07775981 -0.18343724 -0.087518
0.05963507 -0.13761488 -0.13481373 -0.27097663 -0.16857257 -0.26826936 -0.3856747 -0.17925528
-0.10710244 -0.017240543 -0.018569143 0.47483206 0.51281744 0.26835558 -0.15156002 -0.15396193
0.030120736 0.054037068 -0.10296015 -0.052520085 0.0061494885 -0.13363577 -0.16397458 -0.20212348
-0.23348232 0.16213648 0.08066058 0.20322141 -0.10321519 0.38279077 0.3980409 0.25759
0.3507217 -0.038168546 0.2070309 0.38415423 0.4772821 0.34800312 0.046684697 -0.025082363
-0.0027000865 0.07731911 -0.077056244 -0.1087103 -0.12621045 -0.17170535 -0.09361761 -0.14663735
-0.15539642 -0.17341289 -0.34277314 -0.46917036 -0.44277018 -0.16084857 -0.36723793 -0.5376852
-0.59178454 -0.50829446 -0.22322807 -0.28334203 -0.5756552 -0.50403106 -0.47021085 -0.20530517
0.021976465 0.20369089 0.34565467 0.4345499 -0.031370524 0.30524918 0.5489061 0.73432434
0.34177807 -0.13358068 0.3601735 0.365824 0.2343281 -0.05664897 -0.23387915 0.188446
-0.119766906 -0.1735936 -0.14731008 -0.13953279 -0.1843111 -0.05424001 0.019297242 0.08899911
0.19412921 -0.25665087 0.23060423 -0.050623998 -0.009848539 0.05781959 0.031585895 0.04483922
-0.19733189 -0.09533013 0.101066664 -0.042535283 -0.06541839 -0.044102255 0.0934555 0.094635695
-0.090310834 -0.4010775 -0.31987834 -0.04008562 0.23555063 0.26362923 0.054376017 0.07546102
0.21719383 0.37500453 0.03776672 -0.05903784 0.09441577 0.0060902084 0.07126602 0.031048968
-0.09753936 -0.22311942 -0.39295706 -0.23965234 0.12126819 -0.017485565 -0.12696159 -0.29838952
-0.17285043 0.34828243 0.22495633 0.28122726 0.25152695 0.18521944 0.10500484 -0.0006720557
-0.006785331 -0.04841243 -0.049703784 -0.118800186 -0.11187524 -0.2213165 -0.29378372 -0.18078704
-0.32765302 -0.3594468 -0.4241103 -0.3351079 -0.31660357 -0.1708824 -0.057955787 0.041918218
-0.008444356 0.011909719 0.32595098 0.10498998 0.21121645 0.20017907 -0.1159996 -0.04400475

feature.conv5.bn.weight f4 [32]
00000000: 42c8 8e3f 0130 963f 4ae7 8a3f 1df4 563f
00000010: cdc4 9a3f 7441 823f ff9c 923f f78c 8a3f
00000020: 1ab6 773f fb26 933f afd0 723f 6955 703f
00000030: 75b6 9f3f 3943 6a3f 92af 903f 32fa 6c3f
00000040: 16f1 843f 222e 883f 033e 893f 6a25 623f
00000050: f851 8d3f d4a3 9b3f 8f08 823f 1cb6 743f
00000060: a0a9 943f a972 6b3f fa1e 823f c9c1 823f
00000070: f894 3b3f 7120 603f 8211 8f3f 913f 853f
1.1154864 1.17334 1.0851834 0.8396624 1.2091309 1.0176225 1.1454161 1.0824269
0.9676224 1.1496271 0.94849676 0.93880326 1.2477556 0.91508824 1.130358 0.9256927
1.0386074 1.0639079 1.072205 0.8833834 1.104064 1.2159371 1.0158862 0.95590377
1.1614265 0.9197183 1.0165703 1.0215389 0.73274183 0.875495 1.1177218 1.0410024

feature.conv5.bn.bias f4 [32]
00000000: e32b abbe 57fa 38be 9cf8 d8be 1a4a 09bf
00000010: 2819 ea3c 030d bcbe 6698 4fbe 1422 dabd
00000020: 73cf e63e 859b 923c bcae 36bd ba05 213d
00000030: 7b0f 24bf f8ab 4bbd 3586 7b3e 8d81 66be
00000040: b69f 433e dfcb e7be 25ad 133f 5144 11bd
00000050: 5a80 823e 373f 2fbe 2e1b 28be bd81 ae3d
00000060: 1ace 9d3e 9d24 263e 0260 7bbe 157f ca3e
00000070: a979 3fbd 09c3 73be 6275 f13e fce8 453d
-0.3343192 -0.18064247 -0.42377174 -0.53628695 0.028576449 -0.36728677 -0.20272979 -0.10651031
0.45080146 0.017896423 -0.044600233 0.039312102 -0.6408612 -0.04972455 0.24562915 -0.22510357
0.19103894 -0.4527273 0.5768607 -0.035465542 0.2548855 -0.17113958 -0.16416618 0.08520839
0.30821306 0.16224904 -0.24548343 0.3955008 -0.046746884 -0.23804869 0.47159868 0.048317894

feature.conv5.bn.running_mean f4 [32]
00000000: 36bb 33c0 1411 0740 3a39 e840 fc47 3bc1
00000010: 4473 e7c0 c72a e1c0 33ee 80bf 615b f9c0
00000020: 725e 48c0 ebec 96c0 7f15 38bf d9b3 1f40
00000030: c797 31bf 72b5 e5c0 09ba 14c0 8c9d 8940
00000040: 21ae 55c0 3de4 f3bf 47dc 1dc1 29a4 7b41
00000050: 75a5 3f3f 1522 2ac0 3368 abc0 83bb b1c0
00000060: 3af4 d1c0 c6a0 dec0 ff9a 58c0 7858 9ac0
00000070: 169f 9ec1 9efc 08c1 870f b4c0 f1da c0bf
-2.8083014 2.1104174 7.2569857 -11.705074 -7.2328205 -7.036472 -1.0072693 -7.7924047
-3.1307645 -4.7164207 -0.719078 2.495352 -0.6937222 -7.178399 -2.3238547 4.300482
-3.338753 -1.9054028 -9.866279 15.727578 0.7486184 -2.6583302 -5.3564696 -5.5541396
-6.561063 -6.9571257 -3.3844602 -4.8232994 -19.827679 -8.561674 -5.6268954 -1.5066816

feature.conv5.bn.running_var f4 [32]
00000000: bede 5741 0095 cf41 b571 ee41 affb 5d42
00000010: 0f86 1042 dbb3 0542 6915 4341 e17a 9941
00000020: a81c d041 ff4f e841 b875 9c41 6984 4f42
00000030: e542 1a41 56f6 e541 25c3 1e42 5fe9 0b42
00000040: 91be cc41 8e80 b941 1b98 1042 57a4 ca41
00000050: 7a2a b541 9951 d241 ef30 a341 dd77 0542
00000060: d6bd fd41 bee7 9442 0bd1 4d42 1091 0442
00000070: 937c 2e42 af95 0742 1e4b f541 701f 1b42
13.49188 25.947754 29.805521 55.495785 36.130917 33.42564 12.192727 19.185
26.013992 29.03906 19.55748 51.879307 9.641332 28.745281 39.69057 34.9779
25.59305 23.18777 36.14854 25.330244 22.64574 26.289843 20.398893 33.367054
31.717693 74.45262 51.454144 33.141663 43.621655 33.896175 30.661678 38.7807
